test_tflite_app_simple_model/degree.tflite (tflite, 1560 bytes, 3 tensors)

sequential/dense/BiasAdd/ReadVariableOp f4 [10]
00000000: 0000 0000 63cc 473e 0000 0000 0000 0000
00000010: 0000 0000 c6fd 35bd bdb7 21be daf4 b8bd
00000020: e39a 22be 0000 0000
0.0 0.19511561 0.0 0.0 0.0 -0.04443147 -0.15792747 -0.09031077
-0.15879397 0.0

sequential/dense/MatMul f4 [10, 1]
00000000: 1045 b8bd a71a 153f 6144 cebe 14a1 88be
00000010: 0e60 f5be f2f0 1cbc b061 0f3e c027 bbbb
00000020: fc02 fc3e 4074 0cbd
-0.089975476 0.58243793 -0.40286544 -0.26685393 -0.47924846 -0.00957893 0.14002109 -0.0057115257
0.49221027 -0.034290552

sequential/dense_1/MatMul f4 [1, 10]
00000000: 6c56 d8be 5f73 083f 948f 0a3e 07f8 2a3f
00000010: 417d c3be 3de0 8dbe 31f3 d1be 75ec 95be
00000020: ef21 f4be 4832 f53d
-0.42253435 0.5330104 0.13531333 0.6678471 -0.381815 -0.27710143 -0.41005853 -0.29281965
-0.4768214 0.11972481
