test_tflite_app_simple/app/src/main/assets/iswara_model.tflite (tflite, 363812 bytes, 6 tensors)

sequential/dense/BiasAdd/ReadVariableOp f4 [128]
-0.03132852 -0.012281224 0.052425064 0.029697893 0.027805967 -0.009901839 0.051528707 0.08190383
0.037550613 -0.014613757 0.0156239765 0.058677543 0.06619471 0.00024206322 0.029734438 0.05812356
-0.0017942374 0.053772893 -0.008106615 -0.01022537 -0.009774306 0.0030882608 0.008583751 0.030593742
-0.0047090882 0.01792055 0.00029295924 -0.0044503 0.08582458 -0.009894798 0.048491497 -0.036752768
0.0022917818 0.005260611 0.028217822 0.012989398 0.025485573 0.059803393 0.028160444 -0.048529807
-0.010883263 -0.015041697 0.05255925 -0.000958801 -0.028091067 -0.009116761 -0.017193487 0.0109886825
-0.020941187 -0.008018164 -0.00804231 0.0004692587 0.023856517 0.05251497 0.012943202 -0.003043455
-0.0060784714 0.018911358 0.020511415 -0.013224586 0.058570936 0.051256593 0.05601068 -0.0026926193
-0.0061270916 0.037175983 -0.010796525 0.060380433 0.033450708 0.070234165 -0.010105155 0.05611622
-0.024729896 0.020141292 0.017086778 -0.0026075882 -0.027000925 -0.008064173 0.022317698 -0.005589676
0.046795715 0.013141168 0.020822745 -0.018710306 -0.010098359 0.025231639 0.029761214 -0.012756227
0.037845906 -0.011261087 0.0122525515 0.025285067 -0.056238197 0.0013441656 -0.02547482 -0.0038479737
0.015372048 0.02097341 -0.01694667 0.044325586 0.030358924 0.0091363 -0.023342164 -0.0065845475
-0.0049620187 -0.006296619 0.0004874383 -0.012191799 -0.020866653 -0.010969159 0.06825428 0.03650139
-0.02990606 0.014581805 -0.015374704 0.06352344 -0.0126024885 0.056858066 0.075177796 0.04508034
0.045232344 0.025434425 -0.019504469 -0.0023391407 0.0064121843 0.011387931 -0.006818702 0.027217854
00000000: 5652 00bd 3037 49bc aabb 563d ff48 f33c
00000010: 57c9 e33c 533b 22bc c40f 533d 32bd a73d
00000020: acce 193d 8a6e 6fbc b5fb 7f3c dd57 703d
00000030: 1891 873d 5ad2 7d39 a395 f33c f812 6e3d
00000040: 9e2c ebba f740 5c3d 9cd1 04bc 4f88 27bc
00000050: 6924 20bc 6b64 4a3b dca2 0c3c ba9f fa3c
00000060: b24e 9abb 1ece 923c 5398 9939 d2d3 91bb
00000070: ccc4 af3d ca1d 22bc 059f 463d 128a 16bd
00000080: b831 163b 3461 ac3b 1029 e73c 7cd1 543c
00000090: 1fc7 d03c 67f4 743d bbb0 e63c 31c7 46bd
000000a0: b74f 32bc 7371 76bc 5e48 573d 0c58 7bba
000000b0: 3d1f e6bc 785e 15bc 5bd9 8cbc e009 343c
000000c0: da8c abbc 9e5e 03bc e5c3 03bc d606 f639
000000d0: be6e c33c f019 573d b90f 543c b474 47bb
000000e0: ea2d c7bb feeb 9a3c 8e07 a83c efab 58bc
000000f0: 14e8 6f3d 6ff2 513d 746b 653d a876 30bb
00000100: c5c5 c8bb d845 183d e8e3 30bc 7951 773d
00000110: 9c03 093d eed6 8f3d 1890 25bc 1fda 653d
00000120: 5a96 cabc 5aff a43c 92f9 8b3c 12e4 2abb
00000130: 0b31 ddbc 981f 04bc 9bd3 b63c 9a29 b7bb
00000140: ddac 3f3d 0e4e 573c 7694 aa3c 5b46 99bc
00000150: 9673 25bc 95b2 ce3c cacd f33c 7eff 50bc
00000160: 4f04 1b3d 6c80 38bc edbe 483c a122 cf3c
00000170: 065a 66bd b72e b03a 92b0 d0bc 492e 7cbb
00000180: 0bdb 7b3c 6ed0 ab3c bed3 8abc bf8e 353d
00000190: 47b3 f83c 6bb0 153c 1138 bfbc 30c3 d7bb
000001a0: 6e98 a2bb de53 cebb dc8e ff39 1cc0 47bc
000001b0: 8bf0 aabc fdb7 33bc e6c8 8b3d 7b82 153d
000001c0: 8efd f4bc 86e8 6e3c 2fe6 7bbc 9418 823d
000001d0: ab7a 4ebc 01e4 683d d1f6 993d 2aa6 383d
000001e0: 8d45 393d db5b d03c d6c7 9fbc 454c 19bb
000001f0: 4d1d d23b 7294 3a3c 6b6f dfbb faf7 de3c

sequential/dense_2/BiasAdd/ReadVariableOp f4 [12]
0.32692418 0.15751532 -0.26403746 -0.34646505 0.08960552 -0.005921688 -0.048199836 -0.3352736
0.2533708 0.06810874 -0.073741205 0.03658082
00000000: 9b62 a73e b24b 213e eb2f 87be de63 b1be
00000010: 1983 b73d b80a c2bb 316d 45bd fba8 abbe
00000020: d1b9 813e 987c 8b3d a105 97bd c5d5 153d

sequential/dense_1/BiasAdd/ReadVariableOp f4 [64]
-0.041885044 0.091155775 -0.043725085 0.013651974 0.042977568 0.068160675 0.056281578 -0.09031173
0.15813611 0.04347834 -0.069190934 0.06880097 -0.054914918 -0.08947018 0.15825342 -0.035207286
0.0030193669 0.07756466 0.14425552 -0.0054355385 0.10257875 -0.027784448 -0.010303484 -0.011103511
0.0197894 0.13702686 -0.07779921 0.024620125 -0.035344742 -0.053838797 0.026816163 0.18927805
0.017380027 -0.10689357 0.07901097 -0.05953513 0.10642369 -0.05372518 -0.041464515 0.083289854
0.21730305 0.014134585 -0.08480845 0.10497018 -0.05034532 -0.02794147 0.12928027 0.0016314809
0.056789167 0.106771015 -0.098297134 0.11159609 0.06474033 -0.15732066 0.0123711685 0.044640444
0.10200243 0.057064243 -0.099588096 0.10842652 -0.17405778 -0.018214231 0.081079215 0.085065804
00000000: a78f 2bbd e1af ba3d 1319 33bd 87ac 5f3c
00000010: 3f09 303d d397 8b3d 8387 663d 5bf5 b8bd
00000020: 6fee 213e 5816 323d fab3 8dbd 86e7 8c3d
00000030: 77ee 60bd 243c b7bd 2f0d 223e 8435 10bd
00000040: 92e0 453b 38da 9e3d b8b7 133e 9a1c b2bb
00000050: cf14 d23d 369c e3bc f2cf 28bc 80eb 35bc
00000060: 611d a23c c550 0c3e 3155 9fbd 25b0 c93c
00000070: a6c5 10bd 1286 5cbd 92ad db3c 1bd2 413e
00000080: 8f60 8e3c 04eb dabd 81d0 a13d 1cdb 73bd
00000090: aaf4 d93d ef0e 5cbd b2d6 29bd df93 aa3d
000000a0: b184 5e3e bf94 673c 0db0 adbd 9bfa d63d
000000b0: e536 4ebd 82e5 e4bc 0c62 043e 6ad7 d53a
000000c0: c29b 683d c3aa da3d 0250 c9bd 7e8c e43d
000000d0: 9496 843d ab18 21be 71b0 4a3c e6d8 363d
000000e0: a6e6 d03d 32bc 693d d8f4 cbbd b90e de3d
000000f0: 343c 32be 0336 95bc dc0c a63d fb36 ae3d

sequential/dense/MatMul f4 [128, 635]
-0.018956097 -0.023780216 0.03840825 0.005995788 0.0012088445 0.017940484 0.1258918 0.027560614
0.056792177 0.03323915 0.062565476 0.034238975 -0.022436302 -0.02194409 0.07870204 0.12903982
0.15062594 -0.020988507 0.0320738 0.054623287 -0.1462727 0.20927738 0.049899004 -0.06100668
-0.030358542 0.03964125 -0.0727646 0.06739095 0.13171816 -0.021425499 -0.09207832 -0.07327149
-0.055518135 0.04512513 -0.10441999 0.03325995 -0.05203049 0.027197698 -0.008880466 0.06226588
-0.09931033 0.07765239 -0.056680866 0.05823535 -0.050132822 0.016868254 -0.066250965 -0.0026787696
0.08597182 0.025578493 -0.017209234 0.11790037 0.11299675 0.08633899 0.22549525 -0.0663608
0.0516551 0.052898504 0.0006478484 0.051964324 0.12417068 -0.022784375 -0.034726124 -0.046210654
-0.008221565 0.018113844 0.08781952 0.031698048 -0.044190444 0.07600345 0.01812401 -0.041871045
-0.036295913 0.18223527 0.024718568 -0.05591311 -0.015841052 -0.019090936 -0.020939033 0.028978836
-0.08642566 0.114029914 0.053063117 0.07328403 0.10355417 -0.055032738 -0.026443565 -0.05068183
-0.10572217 -0.033936653 -0.015509207 -0.07393981 -0.058379762 0.11701269 -0.02688099 0.116139285
0.114537254 0.061378237 0.078438096 0.17918302 -0.051714327 0.08418656 -0.05272411 0.023400085
0.0034585968 -0.05996641 -0.009892378 -0.028151674 3.7759724e-05 0.098912396 -0.05602416 0.06275093
-0.013898842 -0.083513185 0.22902463 -0.07001463 0.17192844 0.050671604 0.12578808 -0.07846762
0.020837776 -0.010966426 0.06731793 0.028158756 0.051653918 0.033604417 -0.013239771 -0.06700935
-0.015543536 -0.0046403413 0.14045589 0.015325036 -0.06731837 0.07356413 0.101031214 0.0016969616
-0.023950443 -0.015940664 0.13023831 -0.04207314 -0.01419184 0.057675 0.09831045 -0.06998875
-0.06923357 -0.01582579 0.065615736 0.14878622 -0.061763555 -0.067431904 -0.061355807 0.25616145
0.16389605 -0.078871794 0.052499462 0.006315075 0.036270615 0.051026825 0.20789768 -0.017037362
-0.058396846 -0.0089283595 -0.015492761 0.10293153 -0.00046941242 -0.03445854 -0.014165917 -0.01887456
0.04737609 0.038493633 0.08415301 -0.004685959 0.055599373 0.049846865 -0.074973635 0.09756474
0.05276789 0.035760503 -0.008228907 -0.06770883 0.1923813 0.062289435 -0.020792834 0.09463044
-0.07898388 0.036311723 0.13477361 -0.011493762 -0.05905361 0.16112351 0.07743789 0.07331794
0.16625614 0.20940901 0.10860627 -0.023786256 -0.11675576 0.066075206 -0.0688334 -0.029253338
-0.017467814 0.06432362 0.046055276 0.04743974 -0.07921404 0.02681854 0.12180594 -0.0056867516
-0.031385154 -0.0715026 0.030645093 0.03808058 -0.00938692 -0.04687726 -0.018798076 -0.01592189
0.14258479 -0.048372004 -0.015548144 -0.01431602 0.087891586 -0.055304162 0.071052946 -0.011068828
-0.075910755 0.055410456 -0.039792806 0.12775329 -0.021753784 -0.076035194 0.09910967 -0.06611386
0.038434416 0.010564648 -0.052681636 -0.0842182 -0.03933124 -0.04034222 -0.03730618 0.04827188
0.21454039 -0.040574 -0.10275251 -0.074463874 0.05980165 -0.042587686 -0.08348115 -0.057160776
0.10300768 0.0657922 0.027627103 -0.042092577 0.044493984 -0.021644877 0.13795668 0.049829528
00000000: d149 9bbc bace c2bc f851 1d3d 5178 c43b
00000010: 1772 9e3a ecf7 923c c8e9 003e ccc6 e13c
00000020: ea9e 683d c625 083d 5422 803d 2b3e 0c3d
00000030: 56cc b7bc 18c4 b3bc 892e a13d 0423 043e
00000040: b03d 1a3e 17f0 abbc d15f 033d abbc 5f3d
00000050: 83c8 15be cf4c 563e e662 4c3d 24e2 79bd
00000060: 7ab2 f8bc dd5e 223d 9b05 95bd 4404 8a3d
00000070: 20e1 063e 8784 afbc 8f93 bcbd 5d0f 96bd
00000080: fc66 63bd 21d5 383d 26da d5bd 963b 083d
00000090: ec1d 55bd b5cd de3c 607f 11bc 820a 7f3d
000000a0: 3763 cbbd 3708 9f3d 322a 68bd 3188 6e3d
000000b0: 1358 4dbd 4b2f 8a3c 96ae 87bd 4c8e 2fbb
000000c0: fe11 b03d fd89 d13c 61fa 8cbc c075 f13d
000000d0: d76a e73d 7fd2 b03d 3ae8 663e 2ce8 87bd
000000e0: 4c94 533d 1aac 583d 5fd4 293a 8bd8 543d
000000f0: 334d fe3d 4ca6 babc fb3c 0ebd 6247 3dbd
00000100: beb3 06bc 7c63 943c b8da b33d d0d5 013d
00000110: 0a01 35bd b2a7 9b3d ce78 943c f980 2bbd
00000120: 06ab 14bd e29b 3a3e 987e ca3c 2505 65bd
00000130: 18c5 81bc 9864 9cbc 5688 abbc 0665 ed3c
00000140: f0ff b0bd 8488 e93d b658 593d f015 963d
00000150: 3514 d43d 026a 61bd 2da0 d8bc c097 4fbd
00000160: dd84 d8bd 2901 0bbd 541a 7ebc c16d 97bd
00000170: 9e1f 6fbd 59a4 ef3d 8635 dcbc 6fda ed3d
00000180: 8292 ea3d bf67 7b3d 27a4 a03d c17b 373e
00000190: 67d2 53bd 016a ac3d 3df5 57bd 89b1 bf3c
000001a0: a0a9 623b 579f 75bd a413 22bc 579e e6bc
000001b0: 3260 1e38 9592 ca3d 9779 65bd 8f83 803d
000001c0: f8b7 63bc f608 abbd 6f85 6a3e d563 8fbd
000001d0: 020e 303e 078d 4f3d 97ce 003e a2b3 a0bd
000001e0: fcb3 aa3c 86ac 33bc fcdd 893d 31ad e63c
000001f0: 0f93 533d c9a4 093d a0eb 58bc 333c 89bd
00000200: 51aa 7ebc 010e 98bb abd3 0f3e dc15 7b3c
00000210: 37de 89bd caa8 963d 74e9 ce3d 956c de3a
00000220: b833 c4bc ff95 82bc 315d 053e e354 2cbd
00000230: e484 68bc 9f3c 6c3d fd56 c93d 4356 8fbd
00000240: 54ca 8dbd 16a5 81bc 8b61 863d 6a5b 183e
00000250: c8fb 7cbd bd19 8abd 3a50 7bbd 9827 833e
00000260: 5ed4 273e 8987 a1bd ad09 573d b0ee ce3b
00000270: 7f90 143d 8101 513d 21e3 543e f091 8bbc
00000280: 8831 6fbd 4148 12bc 59d5 7dbc c4cd d23d
00000290: 781b f6b9 6624 0dbd 2a18 68bc d29e 9abc
000002a0: 6e0d 423d 80ab 1d3d 6a58 ac3d ac8c 99bb
000002b0: 2bbc 633d 3a2c 4c3d c78b 99bd 06d0 c73d
000002c0: 2523 583d 9b79 123d 8ad2 06bc edaa 8abd
000002d0: 9aff 443e 3523 7f3d bc55 aabc 9bcd c13d
000002e0: 4dc2 a1bd 9abb 143d 1802 0a3e 5550 3cbc
000002f0: 33e2 71bd 90fd 243e c297 9e3d b727 963d
00000300: 0d3f 2a3e 516f 563e f76c de3d 65db c2bc
00000310: a51d efbd 7052 873d 87f8 8cbd b2a4 efbc
00000320: a918 8fbc 1abc 833d 75a4 3c3d 2c50 423d
00000330: f83a a2bd 8eb2 db3c 6575 f93d ee57 babb
00000340: b88d 00bd f56f 92bd 6b0b fb3c 62fa 1b3d
00000350: 99cb 19bc 5f02 40bd 6cfe 99bc a06e 82bc
00000360: bf01 123e b921 46bd a4bd 7ebc bd8d 6abc
00000370: 8100 b43d 9e86 62bd 3584 913d 085a 35bc
00000380: 1977 9bbd 13f6 623d c8fd 22bd c2d1 023e
00000390: fe34 b2bc 57b8 9bbd 03fa ca3d b466 87bd
000003a0: 686d 1d3d 5817 2d3c b3c8 57bd 977a acbd
000003b0: cb19 21bd e23d 25bd 5dce 18bd bcb8 453d
000003c0: 7ab0 5b3e ec30 26bd e86f d2bd 8480 98bd
000003d0: 93f2 743d 6d70 2ebd 2af8 aabd 6b21 6abd
000003e0: b1f5 d23d 10be 863d 3c52 e23c 4469 2cbd
000003f0: 533f 363d 9950 b1bc 8444 0d3e 0c1a 4c3d

sequential/dense_1/MatMul f4 [64, 128]
0.14310925 -0.22229087 0.04023433 0.06354959 -0.4318138 0.36818308 0.20399858 0.062303565
-0.2820191 -0.12895285 -0.061576284 0.045979917 0.051106155 0.36516488 0.15819977 -0.23322105
-0.0040566185 -0.050817475 0.088683955 0.14126776 0.32543686 0.09488999 0.5205093 0.16997382
0.2225959 -0.04746893 -0.13171516 0.28744066 -0.30993605 0.28990465 -0.18390106 0.06862142
0.29023096 -0.22473645 0.10735586 -0.23929541 0.08404934 -0.1671427 0.41786522 0.15525134
-0.19306834 0.21921653 -0.14753333 0.100579105 0.31232268 0.062283754 0.055767123 0.12280508
-0.27067742 0.08292626 0.18544847 0.15945308 -0.25883302 -0.06420619 0.1037525 0.41048214
0.35817343 -0.17210233 -0.17881717 0.13532452 -0.39230722 -0.24020576 0.4713154 -0.13334759
-0.06644448 0.06729822 0.3782345 0.04845041 0.20811181 -0.33241794 0.02532119 -0.13437374
0.13754062 -0.062653884 0.049637 0.35859978 0.06820252 0.26713836 0.19365376 0.54936284
-0.03047431 -0.2653813 -0.22973509 0.042984646 0.36962077 0.28106248 -0.11948554 0.19271202
-0.09194146 -0.013234074 -0.07749671 0.23999362 -0.06775957 0.067488685 0.14691713 -0.07302618
-0.17022407 -0.3739347 0.05310594 -0.16372901 -0.05852771 0.24822482 0.08473875 0.013521225
-0.2227721 -0.08902676 0.2917527 -0.22610177 0.2167821 -0.21201296 0.314023 0.06305209
0.16498266 -0.14896175 0.39080238 -0.053738844 -0.06944547 -0.27918178 0.28626132 -0.24645449
0.010181393 -0.22248466 0.022855975 -0.19862257 -0.08738669 -0.350642 0.3246841 -0.0672866
-0.13993302 0.31266055 -0.14840762 0.12759386 0.16976951 -0.21588087 -0.04562845 0.058076125
-0.04251348 -0.2076143 0.03305016 0.14277568 0.263666 -0.46155143 0.43993708 0.36729556
-0.42517197 0.32755777 0.41712534 0.09812008 -0.14697415 0.02315637 -0.3236268 0.00084946014
-0.21361613 0.13188264 0.17346011 -0.19291465 0.13369721 0.0015383591 -0.14690572 -0.19787422
-0.48334095 -0.07463894 -0.18384275 0.18208046 -0.16195458 0.014323463 -0.081976846 -0.15539643
-0.11724117 0.08035855 0.24673031 0.12865077 -0.33296874 -0.1277762 -0.5791872 0.1636335
-0.046468772 0.09657608 0.22305654 -0.08279499 -0.062312182 0.47656345 -0.151376 -0.037244353
-0.04141591 -0.20106803 0.049171492 0.26752132 0.6420863 0.16042851 0.08704621 0.021876136
0.06765984 0.093654275 0.013534822 0.096715696 -0.027198466 0.43327817 0.1087209 0.1149222
-0.24353705 -0.081196815 0.13884051 -0.27229768 0.08283195 -0.35628915 -0.08266511 -0.19046211
-0.058604494 0.03668412 0.13434014 -0.03219692 -0.19940114 0.091932185 0.2916034 -0.01573603
0.08841135 0.27954644 0.08043905 -0.15178703 -0.18039806 -0.09579093 -0.54202837 0.045117825
0.22331502 -0.19631143 -0.3590699 0.21293633 -0.061269544 0.22530894 -0.037016034 0.009303483
0.31726706 0.027439687 -0.38020602 0.0065609533 -0.4206799 -0.1918015 0.11134199 0.042779684
-0.139403 0.24683703 -0.38419113 0.27080244 -0.14631008 0.24580774 0.11228502 0.361657
0.2594152 0.40916345 -0.2810958 0.0062845508 -0.2523103 0.106990956 -0.11199701 0.10351091
00000000: 3b8b 123e 38a0 63be c1cc 243d 4a26 823d
00000010: b316 ddbe 7e82 bc3e 01e5 503e 0632 7f3d
00000020: cf64 90be 370c 04be 6a37 7cbd 7055 3c3d
00000030: b054 513d e4f6 ba3e 1fff 213e 80d1 6ebe
00000040: 62ed 84bb fc25 50bd ef9f b53d 7fa8 103e
00000050: a99f a63e af55 c23d 1940 053f 9e0d 2e3e
00000060: 2ef0 633e c86e 42bd 57e0 06be 6c2b 933e
00000070: f0af 9ebe 626e 943e 8f50 3cbe 6389 8c3d
00000080: 2799 943e 5021 66be 64dd db3d db09 75be
00000090: 0f22 ac3d 7527 2bbe 6ef2 d53e 35fa 1e3e
000000a0: b5b3 45be 4c7a 603e fa12 17be 6bfc cd3d
000000b0: c2e8 9f3e 401d 7f3d 116c 643d 3b81 fb3d
000000c0: 3b96 8abe 3ed5 a93d 34e6 3d3e ab47 233e
000000d0: c385 84be 897e 83bd 317c d43d b72a d23e
000000e0: 8262 b73e 983b 30be d91b 37be 8392 0a3e
000000f0: 7edc c8be 80f8 75be 4150 f13e 458c 08be
00000100: 0b14 88bd a6d3 893d f4a7 c13e f073 463d
00000110: 431b 553e af32 aabe 626e cf3c 4599 09be
00000120: 73d7 0c3e ae50 80bd 2b50 4b3d 649a b73e
00000130: c3ad 8b3d 5cc6 883e 2c4d 463e 0ba3 0c3f
00000140: 43a5 f9bc 0fe0 87be ad3f 6bbe ab10 303d
00000150: ef3e bd3e 6ce7 8f3e d6b4 f4bd 4d56 453e
00000160: ce4b bcbd bbd3 58bc 98b6 9ebd e3c0 753e
00000170: 88c5 8abd 8237 8a3d 7271 163e c08e 95bd
00000180: 384f 2ebe 5e74 bfbe 9d85 593d 94a8 27be
00000190: c1ba 6fbd a62e 7e3e 828b ad3d 2188 5d3c
000001a0: 5f1e 64be a953 b6bd 9c60 953e 3987 67be
000001b0: 20fc 5d3e ed19 59be 9fc7 a03e 7421 813d
000001c0: 37f1 283e 6e89 18be 4017 c83e 431d 5cbd
000001d0: 6d39 8ebd eaf0 8ebe d890 923e 915e 7cbe
000001e0: dbcf 263c 05d3 63be 743c bb3c b763 4bbe
000001f0: cbf7 b2bd 5987 b3be ff3c a63e 8fcd 89bd
00000200: 9a4a 0fbe 0b15 a03e 2bf8 17be f7a7 023e
00000210: 0fd8 2d3e e00f 5dbe e6e4 3abd 3be1 6d3d
00000220: 9d22 2ebd d898 54be 9b5f 073d ca33 123e
00000230: 3bff 863e 7850 ecbe 6f3f e13e 2a0e bc3e
00000240: 24b0 d9be a7b5 a73e 7491 d53e 2ef3 c83d
00000250: 6480 16be 6db2 bd3c 69b2 a5be 4eae 5e3a
00000260: 30be 5abe 3e0c 073e 879f 313e 6b8b 45be
00000270: ece7 083e c4a2 c93a 746e 16be 8a9f 4abe
00000280: 7778 f7be 4ddc 98bd 4641 3cbe 4d73 3a3e
00000290: 6cd7 25be f5ac 6a3c 7ae3 a7bd 3e20 1fbe
000002a0: 231c f0bd 0693 a43d dfa6 7c3e 07bd 033e
000002b0: e17a aabe c4d7 02be 9d45 14bf 8a8f 273e
000002c0: 0a56 3ebd aec9 c53d ef68 643e 6b90 a9bd
000002d0: 0f3b 7fbd 2000 f43e 4f02 1bbe 898d 18bd
000002e0: bba3 29bd c7e4 4dbe 0c68 493d 8ef8 883e
000002f0: c55f 243f 5f47 243e 4945 b23d 9535 b33c
00000300: 3e91 8a3d d0cd bf3d 28c1 5d3c e112 c63d
00000310: 51cf debc a3d6 dd3e 10a9 de3d 555c eb3d
00000320: c761 79be 844a a6bd 352c 0e3e 9a6a 8bbe
00000330: cca3 a93d 886b b6be 534c a9bd 8008 43be
00000340: 440b 70bd 1642 163d 7690 093e ebe0 03bd
00000350: d02f 4cbe f146 bc3d 0a4d 953e d9e8 80bc
00000360: 0311 b53d b620 8f3e 3bbd a43d 0f6e 1bbe
00000370: 45ba 38be 092e c4bd 5fc2 0abf 78cd 383d
00000380: b1ac 643e dd05 49be 03d8 b7be fb0b 5a3e
00000390: c6f5 7abd 63b7 663e 209e 17bd a36d 183c
000003a0: d470 a23e 32c9 e03c 5daa c2be 44fd d63b
000003b0: 5b63 d7be 9d67 44be 4507 e43d c039 2f3d
000003c0: a9bf 0ebe d9c2 7c3e b3b4 c4be 9ea6 8a3e
000003d0: 4fd2 15be 06b5 7b3e b0f5 e53d 1b2b b93e
000003e0: 12d2 843e df7d d13e caeb 8fbe a2ee cd3b
000003f0: d12e 81be 131e db3d b05e e5bd 87fd d33d

sequential/dense_2/MatMul f4 [12, 64]
-0.54310095 0.28244707 0.033199787 0.14917769 0.16669843 0.024869768 -0.05163497 -0.5547411
0.23934895 0.039429545 0.29976767 0.40014943 -0.49660245 -0.78093946 0.15541208 -0.64033884
0.0025901895 0.2677162 0.31867206 0.08380979 0.27468354 -0.24866778 0.05189158 -0.81670296
0.25747928 0.28846663 -0.30474037 0.36414474 -0.5388353 -0.19490448 -0.7941045 0.0503929
0.27626783 0.14807756 0.2172438 -0.08985057 0.18567356 -0.20592044 -0.43404028 0.29873267
0.14691359 -0.46928862 -0.7883518 0.14524212 0.081895724 0.21075244 -0.39409813 -0.6118351
-0.16104442 -0.3688674 -0.35853958 0.40219268 0.37594014 -0.5259057 -0.3472298 -0.45350918
0.26605308 -0.5160731 -0.49698916 0.30261362 -0.74008524 0.14221156 0.2564614 -0.19084142
0.42996442 -0.31960705 -0.7297289 0.36275056 -0.27703235 0.4237944 0.38071442 -0.27819067
0.28283915 -1.0008065 0.21362734 -0.38280606 0.18751882 -0.8278129 -0.056572843 -0.5689371
0.16740927 -0.20669211 -0.211794 0.43460464 0.3019165 -0.24577945 0.56187934 0.27054217
-0.18974948 0.27134952 -0.08485101 -0.47456568 0.31435102 -0.35208836 0.042897943 0.21005857
-0.36545694 -0.7957734 -0.18185484 0.4341175 -0.1875724 -0.5442147 0.28785172 0.32816982
0.248526 0.38448855 -0.4904357 -0.35757524 -0.3079645 -0.48299706 0.2767105 -0.62666315
0.27108604 0.4125479 -0.8441817 -0.39869407 -0.44774657 -0.30953273 -0.48934278 0.24646463
0.28208318 -0.0007914968 -0.83642924 -0.31979734 -0.5756691 -0.86380154 -0.20337759 -0.283007
-0.41400307 -0.3625577 -0.74956733 0.15731983 0.12060047 0.20542371 -0.45672432 0.12039998
-0.9518822 -0.15340187 -0.41228092 0.22677894 0.35081658 0.09054674 -1.1008399 -0.13301921
-0.3956105 -0.560802 -0.60606873 0.16605318 -0.53238034 -0.23738109 -0.14811714 0.33020592
-0.5535956 0.48238575 0.33961257 -0.34235165 0.10990122 -0.4890782 0.30848137 0.04173491
0.18177429 0.27183792 -0.54755014 0.14384267 0.33207548 0.3391809 -0.45231667 0.14011279
-0.6394411 -0.18064044 0.20864998 -0.41703743 -0.39232054 0.14832239 -0.6040474 0.19768584
-1.0026597 -0.12053535 0.2007462 0.35546592 -0.37917572 -0.35413262 0.2916198 0.4128176
0.29039958 -0.5283808 0.3407902 -0.70675576 0.29632157 -0.40995327 -0.5582334 0.18292785
0.26359025 0.20822133 0.27658203 0.24303803 -0.5760941 -0.5362026 -0.17297868 0.23117462
-0.37865227 0.14196159 -0.02715867 -0.47525355 0.31151807 0.18362068 -0.45483434 0.2572435
-0.7506252 0.3401945 0.31640813 0.14436753 -0.4974322 0.18529308 0.09009119 -0.0087177185
0.09368159 -0.5750816 -0.029118806 0.18571404 -0.10880278 0.3986167 0.28506115 -0.1261956
-0.55202615 0.15895927 -0.012771448 -0.17992993 -0.025036426 0.23718305 -0.061881643 0.26864737
-0.34937742 0.21119052 0.26348537 -0.20750985 0.06574834 -0.6120349 0.11090411 0.060493294
0.0434741 -0.4276963 0.347362 -0.43004936 -0.24483183 0.27332765 -0.03314001 -0.5536037
-0.14023358 0.121605314 0.36199602 -0.10755106 0.09826051 0.18035723 0.22555399 0.16755247
00000000: aa08 0bbf e79c 903e 80fc 073d 09c2 183e
00000010: feb2 2a3e afbb cb3c 317f 53bd 8303 0ebf
00000020: e417 753e e080 213d 267b 993e 63e0 cc3e
00000030: ad42 febe a6eb 47bf 5824 1f3e 3fed 23bf
00000040: 2bc0 293b 1912 893e fc28 a33e 78a4 ab3d
00000050: 52a3 8c3e c4a2 7ebe 448c 543d 7213 51bf
00000060: 53d4 833e e6b1 933e ee06 9cbe 2e71 ba3e
00000070: 1cf1 09bf 0a95 47be 6f4a 4bbf c968 4e3d
00000080: fa72 8d3e a5a1 173e 2975 5e3e 9303 b8bd
00000090: 3621 3e3e cfdc 52be 873a debe 7df3 983e
000000a0: 8470 163e 9946 f0be 6cd1 49bf 5aba 143e
000000b0: f2b8 a73d 7dcf 573e 3bc7 c9be 3aa1 1cbf
000000c0: d4e8 24be 30dc bcbe 8092 b7be 33ec cd3e
000000d0: 3a7b c03e c2a1 06bf 1bc8 b1be 5b32 e8be
000000e0: 1c38 883e 5e1d 04bf 5d75 febe 2cf0 9a3e
000000f0: 3a76 3dbf e89f 113e e94e 833e ef6b 43be
00000100: 4c24 dc3e 89a3 a3be 83cf 3abf 71ba b93e
00000110: 2fd7 8dbe 94fb d83e 00ed c23e 026f 8ebe
00000120: 4bd0 903e 6d1a 80bf 20c1 5a3e 28ff c3be
00000130: ef04 403e 8ceb 53bf edb8 67bd dda5 11bf
00000140: 566d 2b3e 19a7 53be 87e0 58be 8084 de3e
00000150: cd94 9a3e 9cad 7bbe 53d7 0f3f 8184 8a3e
00000160: b04d 42be 53ee 8a3e 5ec6 adbd 46fa f2be
00000170: 9ef2 a03e ed44 b4be c1b5 2f3d 9819 573e
00000180: 2c1d bbbe ceb7 4bbf 2838 3abe a644 de3e
00000190: fb12 40be a851 0bbf 4d61 933e e005 a83e
000001a0: 9a7d 7e3e afdb c43e 631a fbbe 1a14 b7be
000001b0: 86ad 9dbe 644b f7be 00ad 8d3e ff6c 20bf
000001c0: cacb 8a3e 7a39 d33e 4b1c 58bf a121 ccbe
000001d0: 0a3f e5be 137b 9ebe 238b fabe 3961 7c3e
000001e0: 356d 903e 737c 4fba 3a20 56bf 7abc a3be
000001f0: 0d5f 13bf 1922 5dbf 3742 50be 4be6 90be
00000200: 36f8 d3be 2aa1 b9be a5e3 3fbf 7318 213e
00000210: 61fd f63d 985a 523e c5d7 e9be 4494 f63d
00000220: 8dae 73bf 6115 1dbe 7c16 d3be bd38 683e
00000230: 3b9e b33e 9270 b93d 52e8 8cbf 3036 08be
00000240: 768d cabe b890 0fbf 5227 1bbf d809 2a3e
00000250: 144a 08bf 0714 73be 05ac 17be c010 a93e
00000260: 71b8 0dbf 44fb f63e b3e1 ad3e b748 afbe
00000270: e413 e13d 7568 fabe 45f1 9d3e 3af2 2a3d
00000280: 0a23 3a3e 572e 8b3e 3f2c 0cbf 7e4b 133e
00000290: cc05 aa3e 1ea9 ad3e 0d96 e7be ba79 0f3e
000002a0: 69b2 23bf cff9 38be 57a8 553e ee85 d5be
000002b0: 3dde c8be d3e1 173e daa2 1abf 286e 4a3e
000002c0: 2757 80bf 3ddb f6bd 6990 4d3e a1ff b53e
000002d0: 5223 c2be df50 b5be 314f 953e d45c d33e
000002e0: 41af 943e f743 07bf 0e7c ae3e f2ed 34bf
000002f0: 76b7 973e 65e5 d1be 62e8 0ebf 7051 3b3e
00000300: 4df5 863e f937 553e 299c 8d3e f6de 783e
00000310: e77a 13bf 9344 09bf 5321 31be 0ab9 6c3e
00000320: b6de c1be 615e 113e dc7b debc 6f54 f3be
00000330: 4c7f 9f3e 0f07 3c3e 0ce0 e8be 6cb5 833e
00000340: f928 40bf f92d ae3e 3f00 a23e 15d5 133e
00000350: 6faf febe 78bd 3d3e bb81 b83d c3d4 0ebc
00000360: 22dc bf3d 8c38 13bf 908a eebc d22b 3e3e
00000370: fed3 debd 7d17 cc3e 89f3 913e 6b39 01be
00000380: 9651 0dbf 38c6 223e 563f 51bc 8d3f 38be
00000390: 3119 cdbc 1de0 723e 9b77 7dbd 268c 893e
000003a0: 99e1 b2be 5442 583e 8ee7 863e 767d 54be
000003b0: 11a7 863d 52ae 1cbf b221 e33d d1c7 773d
000003c0: e611 323d 02fb dabe 6fd9 b13e 6e2f dcbe
000003d0: 32b5 7abe 9af1 8b3e d2bd 07bd f9b8 0dbf
000003e0: 6499 0fbe 350c f93d 8b57 b93e bb43 dcbd
000003f0: ce3c c93d 91af 383e a0f7 663e e092 2b3e
